Assets/config/results/RollerBall/RollerBall/RollerBall-33085.onnx (onnx, 76086 bytes, 7 tensors)

network_body._body_endoder.seq_layers.0.weight f4 [128, 8]
0	0xbecbe29b	-0.39821324
1	0x3f3ed899	0.7454925
2	0xbf07c94b	-0.53041524
3	0x3f4a9242	0.7912942
4	0xba843773	-0.0010087326
5	0x3e4be96e	0.19913265
6	0x3e940640	0.28911018
7	0x3e351ee9	0.17687573
8	0x3e260cf9	0.16215886
9	0x3ebe9817	0.3722541
10	0xbd1374e0	-0.036000133
11	0x3e2bae7c	0.1676578
12	0x3e9fa264	0.31178582
13	0x3ec1f7fe	0.37884516
14	0x3e14e18f	0.14539169
15	0x3f0a25a9	0.53963715
16	0xbc873bb2	-0.016507957
17	0xbe11777e	-0.14205739
18	0x3bf91af8	0.007602092
19	0x3ea379c0	0.31928825
20	0x3dd8129d	0.10550425
21	0xbe94ae91	-0.29039434
22	0x3de0a30a	0.10968597
23	0x3f38818b	0.72072667
24	0x3d853148	0.0650354
25	0x3e194381	0.14967157
26	0x3e43a0d3	0.19104318
27	0x3eb96db5	0.36216512
28	0xbe4c26c1	-0.19936658
29	0xbeadea86	-0.3396799
30	0xbdff3a7b	-0.12462326
31	0xbdc097ad	-0.0940393
32	0xbd7ee319	-0.062228296
33	0x3e4eb753	0.2018712
34	0x3e4d306c	0.20038003
35	0x3ace13d7	0.0015722465
36	0x3eeecaad	0.46639004
37	0xbeee28bb	-0.4651545
38	0x3eec879b	0.4619721
39	0xbdab053a	-0.08350606
40	0x3e4a1369	0.19733967
41	0xbedc5814	-0.43035948
42	0xbd4772bf	-0.048693415
43	0xbedaef51	-0.4276071
44	0xbe7b9074	-0.24566823
45	0x3e5e7da4	0.21727616
46	0xbe1e5073	-0.15460376
47	0x3e0f6701	0.14004137
48	0xbf0d7032	-0.5524932
49	0x3f183c45	0.59466964
50	0x3eff2334	0.49831545
51	0xbeacf97d	-0.33784094
52	0x3e00eb46	0.1258975
53	0xbeab18a4	-0.33417237
54	0x3e9298f0	0.28632307
55	0x3e22e5ea	0.15908018
56	0xbe1b10b0	-0.15143085
57	0x3e34cb27	0.17655621
58	0x3d69928e	0.05702453
59	0xbf103f5d	-0.56346685
60	0xbe23ed73	-0.16008548
61	0xbcbdf7b2	-0.0231894
62	0x3c058e52	0.008151608
63	0xbd7de96c	-0.061990187
64	0xbdddb243	-0.10825016
65	0xbdf63222	-0.12021281
66	0x3eac4a9b	0.3365067
67	0x3c034332	0.008011626
68	0x3d8235c2	0.0635791
69	0xbf20c646	-0.6280254
70	0xbd9372da	-0.071996406
71	0x3cadffaf	0.021240084
72	0xbe2163bd	-0.15760703
73	0xbe2175b3	-0.15767555
74	0x3e20d400	0.15705872
75	0x3d9483b6	0.07251684
76	0xbee556be	-0.44792742
77	0x3ed2e219	0.41188124
78	0xbe7bb36b	-0.24580161
79	0xbdc02935	-0.093828596
80	0x3eb3f2bc	0.3514613
81	0x3b67c8b0	0.0035367422
82	0x3eaea74a	0.34112006
83	0x3dc51de7	0.09624844
84	0xbe857062	-0.26062304
85	0x3d80ec9b	0.06295129
86	0x3e4a5b52	0.19761398
87	0x3e01f3fc	0.12690729
88	0xbb87f19e	-0.004148676
89	0xbe1c78a8	-0.15280402
90	0x3e28e5fa	0.16493979
91	0x3e49fae6	0.19724616
92	0xbdc75636	-0.0973324
93	0xbe3f136e	-0.18659756
94	0x3eae7447	0.34073088
95	0xbee4c872	-0.44684178
96	0xbecc37a4	-0.398862
97	0x3eae85ab	0.34086356
98	0xbeb5a0c8	-0.3547423
99	0xbf04a848	-0.51819277
100	0xb97fe2a8	-0.00024403131
101	0x3d353918	0.044243902
102	0x3e216f32	0.15765074
103	0xbee919f7	-0.45527622
104	0x3dd1b328	0.102392495
105	0xbf60a87f	-0.87757105
106	0xbe40b0dd	-0.18817468
107	0xbec005fc	-0.37504566
108	0x3eab2ca4	0.33432496
109	0xbe200cee	-0.15629932
110	0x3f351fc8	0.7075162
111	0x3e0b1ca6	0.13585147
112	0x3e19d424	0.15022331
113	0xbe85d21b	-0.2613686
114	0xbf05aba5	-0.52215034
115	0x3e1295d7	0.14314972
116	0xbe1a4077	-0.15063654
117	0x3e30d6c5	0.17269428
118	0xbf2828a4	-0.6568701
119	0x3f7bce54	0.98361707
120	0xbee250a9	-0.44202164
121	0xbbb4a8e5	-0.005513298
122	0x3e9fe567	0.31229708
123	0x3e9982f4	0.29982722
124	0x3ef1f08a	0.4725383
125	0x3e900b4f	0.28133628
126	0x3f08f47c	0.53498054
127	0xbeaf81ef	-0.3427882
128	0xbf3eeee4	-0.7458327
129	0xbde2dccd	-0.11077271
130	0x3e828a2c	0.25496042
131	0x3f03e8ed	0.5152729
132	0x3ece028b	0.40236315
133	0x3e310e4d	0.17290612
134	0xbe4c8afc	-0.19974893
135	0x3f1493a1	0.58037764
136	0x3e071b46	0.13193998
137	0x3e750ae6	0.23929939
138	0x3d7377c1	0.059440378
139	0xbf1f11d1	-0.6213656
140	0xbf5d511a	-0.86451876
141	0xbed8d901	-0.4235306
142	0xbc68ef06	-0.014217144
143	0x3ea683c0	0.32522392
144	0x3cec2735	0.02882729
145	0x3e4e9238	0.20172966
146	0xbec3ead2	-0.3826509
147	0x3f2a1d1d	0.66450673
148	0x3e94ea1a	0.29084855
149	0xbf2c871a	-0.6739365
150	0x3e93b4a3	0.28848752
151	0x3ed14856	0.408755
152	0x3e389356	0.18024954
153	0x3ec400a3	0.38281736
154	0x3e09c589	0.1345426
155	0xbee52b2c	-0.447595
156	0xbedc9c72	-0.43088108
157	0x3f1e8afa	0.6193081
158	0xbe6596e6	-0.22420844
159	0xbd9ef304	-0.07761195
160	0x3d225722	0.039633878
161	0x3e3c703d	0.1840219
162	0xbeacdfa6	-0.3376438
163	0xbf14c09b	-0.5810639
164	0x3f11b9a1	0.5692387
165	0xbf10671e	-0.56407344
166	0x3d6d5c14	0.05794914
167	0x3e195e63	0.14977412
168	0xbdb85de2	-0.09002282
169	0xbe945162	-0.2896834
170	0x3f0a2707	0.539658
171	0x3f0abdb3	0.5419571
172	0xbe6983b1	-0.22804143
173	0x3e6f19ee	0.23349735
174	0x3eb32ac8	0.34993577
175	0x3ede9013	0.43469295
176	0xbf1a2e29	-0.60226685
177	0x3d050339	0.032473776
178	0xbd91d326	-0.071203515
179	0xbdc75437	-0.097328596
180	0x3e49a3f9	0.19691457
181	0xbccf12e5	-0.025277564
182	0x3f214ca0	0.63007545
183	0xbf20035e	-0.6250514
184	0x3db12e05	0.08651356
185	0xbde6ee33	-0.11275902
186	0x3ea50fd4	0.32238638
187	0x3c11030d	0.008850825
188	0xbe67a4b9	-0.2262143
189	0x3e79dcc1	0.24400617
190	0xbf619b54	-0.88127637
191	0xbddf2cb2	-0.10897197
192	0xbf12e86d	-0.57385904
193	0x3ebb8144	0.3662206
194	0xbf26d83e	-0.6517371
195	0xbe4018c3	-0.18759446
196	0xbe3293f9	-0.1743926
197	0x3f31ab0a	0.6940161
198	0x3eaa1b4b	0.33223948
199	0xbf0d5da6	-0.5522102
200	0x3f5e556c	0.86849093
201	0xbe676456	-0.22596869
202	0x3eeb532e	0.459619
203	0xbf49d600	-0.78842163
204	0x3d2e23de	0.042514674
205	0xbe5b5005	-0.21417244
206	0x3cc400ba	0.023926128
207	0xbef1f821	-0.4725962
208	0x3e54f24c	0.20795554
209	0xbebb843c	-0.36624324
210	0x3f459c7e	0.77191913
211	0x3dd726b6	0.105054304
212	0xbd839ab0	-0.06425989
213	0xbf2d0a63	-0.67593974
214	0xbdc77e13	-0.097408436
215	0xbe05c8c7	-0.13064872
216	0x3ecd37cf	0.4008164
217	0xbe8dacf8	-0.27671027
218	0x3d902ee2	0.07040192
219	0xbf2abae8	-0.66691446
220	0xbe0b9460	-0.1363082
221	0x3f5ed578	0.8704448
222	0xbe1e9cfa	-0.1548957
223	0xbeab4171	-0.33448365
224	0xbeca08de	-0.3945989
225	0x3e989592	0.29801613
226	0x3f3c3b96	0.7352842
227	0xbe17bf53	-0.14819078
228	0x3ea22d1a	0.31675035
229	0x3e80bfd9	0.25146368
230	0xbe27d9fa	-0.16391745
231	0x3e7478e2	0.23874238
232	0xbf1c05b5	-0.6094621
233	0xbd1d0a0b	-0.038339656
234	0xbddd3592	-0.10801233
235	0xbebd1d84	-0.3693658
236	0x3ebfb3ce	0.37441868
237	0xbed397f3	-0.41326866
238	0xbe5e471f	-0.21706818
239	0xbf3e18f8	-0.7425685
240	0xba9721ac	-0.0011530421
241	0x3eddcd48	0.4332068
242	0x3e5079dd	0.20358987
243	0xbece79fb	-0.4032744
244	0x3e9a43fd	0.30129996
245	0x3c1b84c2	0.009492101
246	0xbe8276d7	-0.25481293
247	0xbdf47d60	-0.11937976
248	0xbd82a367	-0.06378823
249	0x3e983c34	0.2973343
250	0xbb964f8d	-0.00458712
251	0xbec9678a	-0.39336807
252	0xbd6ee33e	-0.058322184
253	0x3dc09319	0.09403057
254	0x3dced8d5	0.10099951
255	0xbe242821	-0.16030933

network_body._body_endoder.seq_layers.0.bias f4 [128]
0	0x3c2430a2	0.010021361
1	0xbc88315b	-0.016625097
2	0x3bf8b66b	0.0075901053
3	0x3dbd1738	0.09232944
4	0x3d362d82	0.044476993
5	0x3ccaa739	0.024737941
6	0x3cd39d59	0.025831865
7	0xbd2e8a66	-0.042612456
8	0x3dc2ddac	0.09514937
9	0x3ba2f381	0.0049728756
10	0x3a2dbddf	0.0006627719
11	0x3d4d6430	0.050144374
12	0xbca958fb	-0.020672312
13	0x3c55fc4e	0.013060642
14	0x3d27b81c	0.040947065
15	0x3d75cf51	0.060012165
16	0x3d447ffa	0.04797361
17	0xbd0146b6	-0.031561576
18	0x3cb1a75e	0.021686252
19	0x3c91e0b1	0.017807337
20	0xbc022352	-0.007942991
21	0x3d1a25a5	0.037633557
22	0x3c842f33	0.016135788
23	0x3b8cd63a	0.0042979987
24	0x3d1ef5f2	0.03880877
25	0x3d651e92	0.055937357
26	0x3d92696d	0.071490146
27	0x3b24e15c	0.0025158739
28	0x3c5ad52d	0.013356489
29	0xbd59491f	-0.05304825
30	0x3c057045	0.008144443
31	0xbc75cf99	-0.015003108
32	0x3c06ab4a	0.008219549
33	0x3d20c2c0	0.039248228
34	0xbbd45544	-0.006479891
35	0x3bed6cb3	0.007245624
36	0xbae1d2fa	-0.0017229014
37	0x3ce9062c	0.028445326
38	0x3ab7a03b	0.0014009544
39	0x3c4f77d6	0.012662848
40	0xbdb62acf	-0.08894884
41	0x3c4a9af1	0.0123660425
42	0x3cb94cfe	0.02261972
43	0x3cb8f925	0.022579739
44	0x3b837ceb	0.004012694
45	0xbbb95962	-0.005656407
46	0x3d30e34c	0.043185517
47	0x3cb4ac15	0.022054711
48	0x3d8e16e6	0.06937961
49	0x3dbdd5e9	0.09269316
50	0x3d1b90a3	0.037979733
51	0x3d0e8e3e	0.03480362
52	0x3d66f4b4	0.05638571
53	0xbc457a42	-0.012053074
54	0x3d5d3803	0.054008495
55	0x3b211f5b	0.002458534
56	0xbc46ca34	-0.01213317
57	0x3d00bd5f	0.0314306
58	0x3c095778	0.008382671
59	0x3d10f500	0.0353899
60	0xbc61f27f	-0.013790726
61	0xbd609683	-0.05483104
62	0xbd5986ed	-0.05310719
63	0x3cb7b89c	0.022426896
64	0xbbc879df	-0.006118044
65	0x3d1b34b8	0.037892073
66	0x3d07146b	0.032978456
67	0x3cebc63e	0.028781053
68	0x3d40f500	0.04710865
69	0xbc019565	-0.007909154
70	0x3d2da6ec	0.042395517
71	0x3ce1615b	0.027512243
72	0x3cd2f1ef	0.025750129
73	0x3b155e1d	0.0022791692
74	0xbcfe35f3	-0.031031584
75	0x3cc8194a	0.024426121
76	0x3cc42226	0.023942064
77	0xbc989c3d	-0.018629188
78	0x3bfc3117	0.0076962817
79	0xbd6e15f1	-0.058126394
80	0x3d13af98	0.03605613
81	0xbbd1ceee	-0.006402842
82	0x3d9439eb	0.072376095
83	0x3c8b85a2	0.017031495
84	0xbc9b9521	-0.018992009
85	0xbd78b90d	-0.060723353
86	0xbce4728f	-0.027886657
87	0xbcb8eaa4	-0.022572823
88	0x3c0e7a6c	0.00869618
89	0x3cd8206f	0.026382653
90	0x3c48bddb	0.012252296
91	0xbcbd3c4a	-0.023100037
92	0x3d2bc603	0.041936886
93	0x3d10f764	0.03539218
94	0x3d376bdc	0.044780597
95	0xbd1f05a4	-0.03882374
96	0xbbc62674	-0.0060470644
97	0x3d2884b5	0.041142184
98	0xbb74e53c	-0.003736808
99	0x3d651f66	0.055938147
100	0x3c807b28	0.015683725
101	0xbbde09a8	-0.0067760535
102	0x3caf9123	0.021431511
103	0x3c0384d9	0.008027279
104	0xbdf122f6	-0.117742464
105	0x3d05ad00	0.03263569
106	0xbd54ce58	-0.051954597
107	0xbb6cb2ff	-0.0036117432
108	0xbd8b3acf	-0.06798326
109	0x3cf110b9	0.02942692
110	0xbc4ee82f	-0.012628599
111	0xbbf8421c	-0.00757624
112	0x3d798c9a	0.060925104
113	0x3c39af2f	0.011333271
114	0xbccc820b	-0.024964353
115	0x3cdc63e5	0.026903102
116	0xbc952c60	-0.018209636
117	0x3c6a5115	0.014301558
118	0x3c7d3e93	0.015456813
119	0x3bebd1a0	0.00719662
120	0xbca41757	-0.02003066
121	0xbd87db09	-0.066335745
122	0xbcc057b0	-0.023479313
123	0xbc15cb35	-0.009142687
124	0x3d07770c	0.033072516
125	0x3c92983a	0.017894853
126	0xbc4969c5	-0.012293284
127	0xbcedfcf9	-0.02905129

network_body._body_endoder.seq_layers.2.weight f4 [128, 128]
0	0x3d10745c	0.03526722
1	0xbc95d3df	-0.018289505
2	0x3b49dfa9	0.0030803478
3	0x3e42a54b	0.19008367
4	0x3e84fda3	0.2597476
5	0xbd91b3bc	-0.0711436
6	0x3dba4c28	0.09096557
7	0xbd578563	-0.052617442
8	0xbc688799	-0.014192485
9	0x3da92aff	0.08260154
10	0x3d99d01f	0.07510399
11	0x3d969276	0.07352154
12	0xbd036016	-0.032074057
13	0xbda48b21	-0.08034349
14	0x3dc8e567	0.0980938
15	0x3da01ad6	0.078176185
16	0x3be9ac87	0.0071311626
17	0xbd141fa1	-0.036162976
18	0xbbcf8ad8	-0.00633369
19	0xbd6cb567	-0.057790186
20	0x3d8a7bff	0.06761932
21	0x3d8761d2	0.066104546
22	0x3e2f9514	0.17146713
23	0x3c497fa7	0.012298501
24	0xbe249ba0	-0.16074991
25	0x3e22fe9c	0.15917438
26	0x3e782028	0.24231017
27	0xbc06cbc7	-0.008227295
28	0x3dd5bc38	0.104362905
29	0x3d6a893d	0.057259787
30	0xbd0b13a6	-0.033954285
31	0xbd767663	-0.060171496
32	0x3e01201c	0.12609905
33	0x3d7a62c3	0.061129343
34	0xbc81ab33	-0.015828704
35	0x3d8cfac8	0.0688377
36	0xbce988b9	-0.028507577
37	0x3dc49d59	0.09600324
38	0x3d6b8320	0.057498097
39	0x3d8b349a	0.06797142
40	0xbc90f369	-0.017694192
41	0x3c4b6513	0.012414235
42	0x3d1923d2	0.037387677
43	0xbd866f2b	-0.06564172
44	0xbdd8284b	-0.1055456
45	0xbcfdebb9	-0.03099619
46	0x3dc4dee2	0.09612824
47	0xbc674239	-0.01411491
48	0x3cf17c48	0.029478207
49	0x3db3a82c	0.087723106
50	0xbdacf957	-0.08445995
51	0xbd2116ba	-0.039328314
52	0x3de23784	0.11045745
53	0x3d2a63fc	0.04159926
54	0x3dcd166b	0.100140415
55	0xbad253e9	-0.0016046736
56	0x3db398d1	0.08769382
57	0x3d4cf6bf	0.050040003
58	0x3dcd4969	0.100237675
59	0x3b790180	0.0037995279
60	0x3c6a8497	0.014313838
61	0xbd6d363c	-0.05791305
62	0x3e03df83	0.12878232
63	0x3cd6067a	0.026126135
64	0x3d8f068a	0.06983669
65	0x3dd27f47	0.102781825
66	0x3dbf3607	0.09336477
67	0xbaad7745	-0.0013234398
68	0x3c3018a0	0.010748059
69	0xbce14856	-0.027500313
70	0x3ccb9a12	0.02485374
71	0xbe191193	-0.1494811
72	0xbdc4e4c0	-0.09613943
73	0xbda2af0c	-0.07943544
74	0xbdf549d9	-0.11976976
75	0xbc7570f5	-0.014980544
76	0xbc472515	-0.012154837
77	0xbdb1cf96	-0.08682172
78	0xbdc9063b	-0.098156415
79	0xbda09588	-0.07841021
80	0x3e0da6f1	0.13833214
81	0x3d01723a	0.031603076
82	0x3e1ef9a2	0.15524915
83	0xbd550d95	-0.052014906
84	0x3dba4512	0.09095205
85	0x3d990e7c	0.07473466
86	0xbcc0b229	-0.023522453
87	0x3d91ef60	0.07125735
88	0xbdf5b0b7	-0.11996596
89	0xbd59abbf	-0.053142305
90	0x3d516513	0.051121783
91	0x3c51704f	0.012783124
92	0x3dbffe98	0.09374732
93	0xbd37b23e	-0.04484772
94	0x3aaedde6	0.0013341277
95	0x3d046417	0.032322016
96	0xbdc8947a	-0.09793945
97	0x3c7e0637	0.015504411
98	0x3b7515ab	0.0037396948
99	0x3e13b050	0.14422727
100	0x3d424e9a	0.04743824
101	0xbc8692a9	-0.016427355
102	0xbcde0441	-0.027101638
103	0x3d71ff65	0.059081454
104	0x3d92aff6	0.07162468
105	0x3aca774f	0.0015446934
106	0xbda51a33	-0.08061638
107	0xbdea81e6	-0.114505574
108	0xbd22a438	-0.039707392
109	0x3d4aaa01	0.049478535
110	0x3e01051c	0.12599605
111	0xbd7df8aa	-0.062004723
112	0x3c841131	0.016121479
113	0xbbf31bf3	-0.0074191033
114	0xbe00e6c5	-0.12588032
115	0xbe8be993	-0.2732664
116	0x3cd10e26	0.025519442
117	0xbd373371	-0.044726793
118	0xbd26f5c2	-0.040761717
119	0x3d39e5d6	0.045385204
120	0xbe140823	-0.14456229
121	0xbd0ad765	-0.033896822
122	0x3b8d89f7	0.004319425
123	0xbdec18a9	-0.11528141
124	0xbe0a94c3	-0.1353331
125	0x3de22ee0	0.11044097
126	0x3cec5211	0.028847726
127	0x3d3727c4	0.044715658
128	0xbce6a7bb	-0.028156152
129	0xbdb89be6	-0.0901411
130	0xbd95d9f2	-0.073169604
131	0x3d124b71	0.035716478
132	0xbd2b9a05	-0.04189493
133	0xbe15aa76	-0.14615807
134	0x3ca9d686	0.020732176
135	0xbd73b212	-0.059495993
136	0x3e730634	0.23732835
137	0x3d5e2589	0.054235015
138	0xbddd1278	-0.10794538
139	0x3e5ac73f	0.21365069
140	0xbdf2472b	-0.118299805
141	0x3ca590e1	0.020210685
142	0xbddb58db	-0.10710307
143	0xbd07a56c	-0.033116743
144	0xbd10a903	-0.035317432
145	0x3c614d55	0.013751348
146	0x3d8385a6	0.06421976
147	0x3d2551ae	0.0403611
148	0xbe18e88b	-0.14932458
149	0x3c119ae1	0.008887024
150	0x3d59013c	0.052979693
151	0x3db14144	0.086550266
152	0xbd30d509	-0.043171916
153	0x3dff20c0	0.124574184
154	0x3c795729	0.0152185345
155	0x3cc5bf49	0.024139063
156	0x3daa0b78	0.08302969
157	0xbc8a086a	-0.016849715
158	0xbacaf36f	-0.0015483926
159	0xbdd0fd2a	-0.10204537
160	0x3ccfc620	0.025363028
161	0x3da5bc21	0.08092523
162	0xbd6a8a83	-0.057261
163	0xbe16ada2	-0.14714673
164	0xbd757bc7	-0.059932496
165	0x3ca3c676	0.019992094
166	0xbe1cedfd	-0.1532516
167	0xbe25eb04	-0.16202933
168	0x3d35d02d	0.044387985
169	0xbd602d41	-0.054730657
170	0x3c8eb022	0.017417971
171	0xbe4f6e17	-0.2025684
172	0x3d0d81ea	0.034547724
173	0xbe10811d	-0.14111753
174	0xbdd7e01a	-0.10540791
175	0x3d8276eb	0.06370338
176	0x3dc2b25a	0.09506674
177	0xbc202ec1	-0.009776772
178	0x3da50c31	0.08058966
179	0xbddad60c	-0.106853575
180	0x3e16e16e	0.14734432
181	0x3c1ad522	0.009450229
182	0xbc0be809	-0.008539208
183	0xbd98e093	-0.07464709
184	0x3da576d4	0.08079305
185	0xbd80af36	-0.06283419
186	0x3dfc56c8	0.1232124
187	0xbd84f152	-0.06491341
188	0x3d23a900	0.039956093
189	0x3e2b3a50	0.16721463
190	0xbca3bac6	-0.019986521
191	0x3e1c3107	0.15253077
192	0xbd121dab	-0.035672825
193	0x3d9c4ec1	0.076322086
194	0x3d86b258	0.06576985
195	0x3d2e5161	0.042558078
196	0x3d53c491	0.051701132
197	0x3db2f4f8	0.0873813
198	0x3db60c3d	0.08889053
199	0xbcce07af	-0.025150148
200	0xbd6d3126	-0.0579082
201	0xbd83fa11	-0.06444181
202	0x3d164482	0.036686428
203	0xbe2d7ca6	-0.16942081
204	0x3d2a0e7d	0.041517723
205	0x3d8a8058	0.06762761
206	0xbc2349c7	-0.00996632
207	0x3c72532b	0.014790337
208	0x3d69209a	0.056915857
209	0x3d4fbb50	0.050715744
210	0x3d98ca55	0.07460467
211	0xbdb5fd3e	-0.08886193
212	0x3da4e224	0.080509454
213	0xbce4092a	-0.027836401
214	0x3c8bfcde	0.01708835
215	0x3da0bc68	0.07848436
216	0x3d69d3cf	0.057086762
217	0xbe0ad4ac	-0.1355769
218	0x3d8d1088	0.06887919
219	0xbdd3f250	-0.10348952
220	0xbc866648	-0.016406193
221	0x3d58efd4	0.052963093
222	0x3e483b6f	0.19553922
223	0x3d9ab9ea	0.075549915
224	0x3dfc0df6	0.1230735
225	0x3b6f6476	0.0036528385
226	0xbdeca663	-0.11555173
227	0x3e2fcb49	0.17167391
228	0x3e1d8340	0.15382099
229	0xbe5a3ddf	-0.21312664
230	0x3db60d5a	0.08889265
231	0x3dd33e18	0.10314578
232	0x3ddb0114	0.10693565
233	0x3e2427b8	0.16030777
234	0x3c5172c3	0.012783709
235	0xbc303ece	-0.010757161
236	0x3d2d4b1e	0.042307965
237	0xbe1f1622	-0.15535787
238	0x3e1759a0	0.14780283
239	0x3d2782bb	0.04089616
240	0xbe122524	-0.1427198
241	0x3dfc1846	0.12309317
242	0xbcc92591	-0.024554046
243	0xbe0ce2a5	-0.13758333
244	0x3e54c6d8	0.20778978
245	0x3e507cc5	0.20360096
246	0x3ce29fbd	0.02766406
247	0x3d9ed76d	0.07755933
248	0x3cab625f	0.02092093
249	0x3daf1746	0.08549361
250	0xbe2070e3	-0.15668063
251	0x3ce8d406	0.028421413
252	0xbdb44761	-0.08802677
253	0x3ca5c399	0.02023487
254	0xbc9418f5	-0.018078307
255	0xbdb432b2	-0.08798732

network_body._body_endoder.seq_layers.2.bias f4 [128]
0	0x3d955c7e	0.07293032
1	0x3d37c941	0.044869665
2	0x3c42ab78	0.011881702
3	0x3c86c33a	0.016450513
4	0x3d1347ae	0.03595703
5	0x3d4d3099	0.050095174
6	0x3d056d76	0.032575093
7	0xbce7ba47	-0.028287066
8	0x3d0ea21e	0.034822576
9	0x3c94b136	0.018150907
10	0x3c0da4e1	0.008645267
11	0xbd454812	-0.048164435
12	0xbd19c5fe	-0.037542336
13	0x3ca72dd8	0.020407602
14	0x3ca8fb1f	0.020627556
15	0x3cb1a4b3	0.02168498
16	0xbcba0363	-0.022706693
17	0x3d40928c	0.047014758
18	0x3dc9367f	0.098248474
19	0x3d45fdcc	0.048337743
20	0xbbbfa75e	-0.005848809
21	0x3cad0c30	0.021123976
22	0x3d7c05da	0.061529018
23	0x3d9e99fb	0.07744213
24	0x3ca2c8cf	0.019871144
25	0x3d22a44c	0.039707467
26	0x3c9162e6	0.017747354
27	0x3dac4385	0.08411316
28	0xbcc52a02	-0.024067882
29	0x3d1330d2	0.03593523
30	0x3b9c3c06	0.0047678975
31	0xbc79c0e7	-0.015243745
32	0xbd06cf86	-0.032912754
33	0xbc86bbf8	-0.016447052
34	0xbca6a305	-0.020341406
35	0xbc62dfd6	-0.013847312
36	0x3af6abc2	0.0018819498
37	0xba6a49fe	-0.00089374173
38	0x3d27dda9	0.040982876
39	0xbb4fe8df	-0.0031724495
40	0x3c9730fa	0.018455971
41	0x3c7e5c9c	0.0155250095
42	0x3beb140b	0.00717402
43	0x3d29f6cf	0.04149514
44	0xbc8f42ed	-0.017487967
45	0x3b6523ee	0.0034964043
46	0x3be37795	0.0069417455
47	0xbc71fbd0	-0.014769509
48	0xba7e1965	-0.0009693115
49	0x3d02c1f6	0.031923257
50	0x3d1c8199	0.03820953
51	0x3ccdf6a1	0.025142016
52	0x3b59d647	0.0033239292
53	0xbb465e2a	-0.0030268528
54	0x3d945381	0.072424896
55	0xbcc0d350	-0.023538262
56	0x3d0d237d	0.034457672
57	0x3c95897a	0.01825403
58	0xbc653f01	-0.013992072
59	0xbcb437bf	-0.021999238
60	0x3c79a3ee	0.015236838
61	0xbd301f9f	-0.042998906
62	0xb9ef2043	-0.0004560967
63	0x3b4905e2	0.0030673672
64	0x3c8fd975	0.017559746
65	0xbce3ac07	-0.02779199
66	0x3d6cafe6	0.057784937
67	0x3c9ca2e6	0.019120645
68	0xbc4da8e3	-0.012552473
69	0x3cfb2c3d	0.030660743
70	0x3d617e87	0.055052307
71	0x3d7d0dc6	0.061780713
72	0xbc67291d	-0.014108923
73	0x3c1a52e9	0.009419181
74	0x3b69e9d8	0.003569236
75	0xbc90f0ae	-0.01769289
76	0x3c584b9b	0.0132016195
77	0x3d925821	0.071457155
78	0x3d591a0f	0.053003367
79	0x3bf7dd18	0.007564198
80	0xbc7053cf	-0.014668419
81	0x3d959bc8	0.073051035
82	0x3bd4abb4	0.006490195
83	0x3d363ea3	0.04449333
84	0x3c5a5f1b	0.013328339
85	0x3bfb6e78	0.007673081
86	0x3c829443	0.015939837
87	0x3dcd77ca	0.100326136
88	0xbc3c7237	-0.01150184
89	0xbca7489c	-0.020420365
90	0xbbdf7c24	-0.0068202186
91	0x3cc3d4d0	0.023905188
92	0x3c987610	0.018610984
93	0x3c1dfa04	0.009642128
94	0x3cfbaad1	0.0307211
95	0x3ca4f817	0.02013783
96	0xbcca0e89	-0.024665134
97	0x3d2d1e3b	0.04226516
98	0x3d38bea7	0.045103695
99	0x3cc828bd	0.024433488
100	0x3d4edd2e	0.050503902
101	0x3c2c69fb	0.010523315
102	0x3c371088	0.011173375
103	0xbc89f46f	-0.016840188
104	0x3cd6cf0f	0.02622178
105	0x3a9bfa6a	0.0011900191
106	0x3c58ccb0	0.013232395
107	0x3ccd33e4	0.025049157
108	0x3d82b398	0.06381911
109	0xbb02aebc	-0.0019940576
110	0xbba31be3	-0.0049776896
111	0xbbb651af	-0.0055639367
112	0xbc8a37b6	-0.016872268
113	0x3d9a446b	0.07532581
114	0x3cfbcb88	0.0307367
115	0x3d099aa2	0.033594735
116	0x3d7cc5d2	0.061712094
117	0x3d16642a	0.036716618
118	0xbc240a9b	-0.010012294
119	0x3c0025b7	0.007821492
120	0xbb508838	-0.0031819474
121	0x3d59ceb8	0.053175658
122	0xbc30e664	-0.010797117
123	0xbcd030c4	-0.025413878
124	0x3d072346	0.032992624
125	0x3ae2df40	0.0017308965
126	0xbcc6090c	-0.024174236
127	0x3d00a930	0.03141135

action_model._continuous_distribution.log_sigma f4 [1, 2]
0	0x3cdce2e4	0.026963659
1	0x3b72590e	0.003697935

action_model._continuous_distribution.mu.weight f4 [2, 128]
0	0xbd2040d8	-0.03912434
1	0xbd46d76a	-0.04854528
2	0x3d303195	0.043016035
3	0xbd086660	-0.033300757
4	0xbc159693	-0.009130138
5	0xbcadfdea	-0.02123924
6	0xbd18e840	-0.037330866
7	0xbbfefe76	-0.007781799
8	0xbc8dc956	-0.017307919
9	0xbd13189c	-0.03591214
10	0xbd8bf5b7	-0.06833976
11	0x3c1375fa	0.009000296
12	0x3c85a3b6	0.016313415
13	0xbc8e0e67	-0.017340852
14	0xbd2ba413	-0.04190452
15	0x3cbedaac	0.02329763
16	0x3c4adeed	0.012382251
17	0xbd843718	-0.06455821
18	0xbcf9f67a	-0.030513037
19	0xbbc64538	-0.006050732
20	0x3d4a7b8e	0.049434237
21	0xbbf61022	-0.0075092474
22	0xbd00684d	-0.03134947
23	0xbd6667c9	-0.05625132
24	0xbd509c54	-0.050930336
25	0x3c842338	0.016130075
26	0x3d83710a	0.06418045
27	0x3dcebbd9	0.10094423
28	0x3cd33775	0.02578328
29	0xbc22b15b	-0.00992998
30	0x3d16a3bc	0.036777243
31	0x3c298d64	0.010348652
32	0x3b0dca55	0.0021635492
33	0xbbf94c2a	-0.0076079564
34	0xbcb441e4	-0.022004075
35	0x3c03f9c7	0.008055157
36	0x3ce37e5b	0.027770212
37	0x3d2ddda3	0.042447697
38	0xbd823029	-0.06356842
39	0xbd5a5663	-0.05330504
40	0x3ce4193d	0.027844066
41	0xbcc1ea88	-0.023671404
42	0xbd1266c5	-0.03574254
43	0xbd75d0c9	-0.060013566
44	0x3c31602d	0.010826153
45	0xbd284543	-0.041081678
46	0x3d3133c7	0.04326227
47	0xbc7a1c84	-0.015265588
48	0x3d256bc4	0.040385976
49	0xbcef9856	-0.029247444
50	0xbd1a77d9	-0.037711952
51	0xbd29ec52	-0.04148514
52	0x3d480c65	0.048839945
53	0x3d4518a0	0.048119187
54	0xbd17e1b3	-0.037080478
55	0x3d019165	0.0316328
56	0x3da2afba	0.079436734
57	0xbc588f52	-0.013217764
58	0x3c88774d	0.01665845
59	0x3d0450de	0.032303683
60	0x3d01e998	0.031716913
61	0x3b8ca963	0.0042926534
62	0x3d39a0cc	0.045319363
63	0x3d109d9a	0.03530655
64	0x3c8a796b	0.0169036
65	0xbd21770d	-0.039420176
66	0x3db38d0b	0.08767136
67	0x3c251555	0.010075887
68	0x3a5aea41	0.00083509466
69	0xbd9ddbe6	-0.07707958
70	0x3d266281	0.040621284
71	0xbc7a6040	-0.015281737
72	0x3c984d96	0.018591683
73	0xbce40496	-0.027834218
74	0xbcc9c28c	-0.0246289
75	0x3d340fa2	0.04396022
76	0xbd3bbced	-0.04583447
77	0xbd939dba	-0.07207818
78	0xbd8b1807	-0.06791692
79	0x3d57b275	0.052660424
80	0x3d21b7c2	0.039481886
81	0xbd5b4791	-0.053535048
82	0xbbcbb79c	-0.0062169563
83	0x3d856e10	0.065151334
84	0xbd25d6b6	-0.040487967
85	0xba5d8fce	-0.00084519095
86	0x3cc4e51a	0.024035025
87	0x3dd5cdb6	0.10439627
88	0x3c03fe0e	0.008056177
89	0x3cb195aa	0.02167781
90	0xbcd360ee	-0.025803056
91	0xbd4d09ff	-0.05005836
92	0x3d8d258f	0.06891929
93	0x3c2d6020	0.010582
94	0x3d851168	0.064974606
95	0xbd4fe6d6	-0.05075725
96	0xbd12d693	-0.035849165
97	0xbc2b2d8a	-0.010447869
98	0xbd10340f	-0.035205897
99	0x3d0015f0	0.03127092
100	0xbd917134	-0.0710167
101	0x3d16937f	0.036761757
102	0x3d833f9a	0.064086154
103	0xbc0a9534	-0.008458424
104	0x3d9a3f1f	0.07531571
105	0xbd1f35fb	-0.03886984
106	0x3d92c98b	0.071673475
107	0x3c853be0	0.016263902
108	0xbd360872	-0.044441648
109	0xbc333fff	-0.010940551
110	0x3c07cf45	0.008289163
111	0x3cfd17eb	0.030895194
112	0x3bebc54c	0.0071951505
113	0xbdcb5f3e	-0.099302754
114	0x3ccae42d	0.024767006
115	0xbc30b497	-0.0107852435
116	0xbcd1d29a	-0.025613118
117	0xbbe661a1	-0.0070306812
118	0xbcb1692c	-0.021656595
119	0xbd5fedf5	-0.054670293
120	0xbd0f89e9	-0.03504363
121	0x3d72a1ec	0.059236452
122	0x3d1895fb	0.037252408
123	0xbaf78c6e	-0.0018886456
124	0xbd1c5f62	-0.0381769
125	0x3be5446e	0.006996683
126	0x3d0b2fdf	0.0339812
127	0xbd12ac31	-0.035808746
128	0x3d4a8f8b	0.0494533
129	0x3d12349b	0.0356947
130	0x3beba893	0.0071917265
131	0x3badadd0	0.005300261
132	0xbde9f561	-0.114237554
133	0x3d6c1553	0.057637524
134	0x3cbeeb67	0.023305608
135	0xbd871002	-0.0659485
136	0x3d28f18a	0.041245975
137	0xbcec533c	-0.028848283
138	0x3c713d3b	0.014724071
139	0x3c99765b	0.018733194
140	0xbcfe1610	-0.03101638
141	0x3d37c9f6	0.04487034
142	0x3bf78667	0.007553864
143	0xbdabf5ba	-0.08396478
144	0xbd2ba6d6	-0.041907154
145	0x3d6e7800	0.05821991
146	0x3db98c61	0.09059978
147	0xbdb1bbff	-0.086784355
148	0xbc6f9c72	-0.014624702
149	0x3c770489	0.015076765
150	0x3d816efa	0.06319995
151	0x3d6efbc6	0.05834558
152	0xba8a3776	-0.0010545093
153	0xbde6efbd	-0.11276195
154	0x3c1fdb22	0.009756835
155	0xbc8f91be	-0.01752555
156	0xbc8e2be7	-0.017354919
157	0x3cfb280a	0.03065874
158	0xb7b6bd3c	-2.178421e-05
159	0xbd653551	-0.05595905
160	0x3b8ec399	0.004356813
161	0xbd122e62	-0.035688765
162	0xbc8faaaa	-0.017537434
163	0xbd1ec772	-0.038764425
164	0xbc72806e	-0.014801128
165	0xbcfb962f	-0.030711262
166	0x3d424ed2	0.04743845
167	0xbccfd51e	-0.025370177
168	0x3d0f2578	0.034947842
169	0x3cbf75b0	0.023371547
170	0xbb931194	-0.0044881795
171	0x3d597ad9	0.053095672
172	0xbd63ead7	-0.055643883
173	0xbcdfb05d	-0.027305776
174	0xbd498fe6	-0.049209498
175	0xbc211d15	-0.009833594
176	0xbd662166	-0.056184195
177	0x3d8555c4	0.06510499
178	0xbd8c2c0a	-0.06844337
179	0xbd195692	-0.037436076
180	0xbcd1f707	-0.025630487
181	0x3c2c2883	0.010507706
182	0x3d3e789b	0.046501737
183	0x3c85430c	0.016267322
184	0x3becf91b	0.007231844
185	0xbd8f5c36	-0.0700001
186	0x3a5e3889	0.00084770523
187	0xbd021111	-0.031754557
188	0x3c315b4c	0.0108249895
189	0xbc0bef5e	-0.008540956
190	0xbadf343b	-0.0017029116
191	0xbd8e3717	-0.06944101
192	0x3d167e74	0.03674169
193	0xbccf8bf5	-0.025335291
194	0xbd1f2622	-0.038854726
195	0x3cfd9a24	0.030957289
196	0xbb1578df	-0.002280764
197	0xbd1123f3	-0.035434674
198	0x3c6b7e6d	0.014373404
199	0xbdee59a0	-0.11638188
200	0xba95e8fc	-0.0011437233
201	0x3c4707f0	0.012147889
202	0xba4faa58	-0.00079218065
203	0xbcfba7c4	-0.030719645
204	0xbcce1069	-0.02515431
205	0x3d838970	0.064226985
206	0x3d3b9218	0.045793623
207	0xbd4b8b8b	-0.049693625
208	0xbc32c7bf	-0.010911881
209	0xbdb6e584	-0.089304954
210	0xbdc5f69e	-0.09666179
211	0x3d52aec3	0.051436197
212	0xbd39a607	-0.04532435
213	0xbdc26a13	-0.09492888
214	0x3d3d4aa0	0.046213746
215	0x3d29c05c	0.041443214
216	0xbd60365b	-0.054739337
217	0xbbb29cf6	-0.00545084
218	0xbd439a82	-0.047754772
219	0xbb4e29e3	-0.0031458072
220	0x3bd443d3	0.006477812
221	0xbd86152e	-0.065470085
222	0xbb3d7b17	-0.0028912479
223	0x3b702bff	0.0036647317
224	0xbc7b9f66	-0.015357828
225	0x3d67011b	0.05639754
226	0x3d6d1f22	0.05789102
227	0x3c81df7b	0.015853634
228	0x3d1a28db	0.03763662
229	0x3cf6f003	0.030143743
230	0xb83d9703	-4.5201752e-05
231	0xbd1cab9b	-0.038249593
232	0xbc8e1e9d	-0.017348582
233	0xbbb9f5ec	-0.005675068
234	0xbd0c915d	-0.034318317
235	0x3d0910d0	0.0334633
236	0x3d66b8ad	0.056328464
237	0xbd85e026	-0.065368935
238	0x3c33948c	0.010960709
239	0xbd16f05a	-0.03685031
240	0x3b89a192	0.004200169
241	0x3db1f6a6	0.086896226
242	0xbd91e342	-0.07123424
243	0xbdab5cf5	-0.083673395
244	0x3d88c3dc	0.06677982
245	0xbd928729	-0.07154686
246	0xbd062cae	-0.032757454
247	0x3c1ae46e	0.009453876
248	0xbd2f2ccc	-0.04276733
249	0xbdf01678	-0.117230356
250	0xbd5a483f	-0.053291555
251	0xbcc2f4ae	-0.023798313
252	0x3d4ff61b	0.050771814
253	0xbd2be8db	-0.041970115
254	0xbc89e838	-0.016834363
255	0x3d2aac24	0.041668072

action_model._continuous_distribution.mu.bias f4 [2]
0	0xbb756132	-0.0037441966
1	0x3cdf297a	0.027241457
